code/pytorch_mnist_model.pth (torch, 440741 bytes, 6 tensors)

fc1.weight f4 [128, 784]
0	0x3cbdcd58	0.023169205
1	0xbc342a76	-0.010996452
2	0xbb0d5659	-0.002156636
3	0x3cb05ff7	0.021530135
4	0xbcec6304	-0.028855808
5	0x3cd682cf	0.026185421
6	0xbb291ade	-0.0025803368
7	0x3cbbe50f	0.022936372
8	0x3c1f729a	0.009731913
9	0x39ce8de4	0.000393971
10	0x3c706616	0.014672777
11	0x3bd5efde	0.0065288385
12	0x3c97ae87	0.018515838
13	0xbc19a554	-0.009377796
14	0x394a2856	0.00019279247
15	0x3ac0a020	0.0014696158
16	0x3c22ea6d	0.009943587
17	0x3b978786	0.00462431
18	0x3d13675a	0.035987236
19	0x3c8218cb	0.015880963
20	0xbc0bced8	-0.008533202
21	0xbc89a6a9	-0.016803103
22	0xba9fd0d5	-0.0012192974
23	0xbc2e4b0b	-0.010638009
24	0xbbdacf6c	-0.0066775586
25	0x3bd43d67	0.0064770463
26	0x3cd575f6	0.026057225
27	0x3cc612fa	0.02417897
28	0xbcf6f3e0	-0.030145586
29	0x3cdc6bff	0.026906965
30	0x3c71920d	0.014744294
31	0x3d1e490f	0.038643893
32	0x3ce82a76	0.02834056
33	0xbce398c5	-0.027782807
34	0xbcf3de5d	-0.029769117
35	0xbc5a45b4	-0.013322283
36	0x3d104051	0.035217587
37	0xbaaab52d	-0.0013023965
38	0x3ca8f835	0.020626167
39	0xbbfb73f3	-0.0076737343
40	0x3d37b884	0.044853702
41	0xbc261679	-0.010137194
42	0x3ce54b6e	0.02799007
43	0x3b8c6f04	0.004285695
44	0xbc27878f	-0.010225191
45	0x3cd784d6	0.026308458
46	0xbc5d4544	-0.013505284
47	0x3c7387f9	0.014863961
48	0xbbbff0ae	-0.0058575487
49	0x387ec8ff	6.074551e-05
50	0xbcf41bea	-0.029798467
51	0xbc49143c	-0.012272891
52	0x3cc5cf5f	0.024146734
53	0xbb8043c9	-0.0039143306
54	0x3d253bac	0.04034011
55	0x3d08c94f	0.033395108
56	0x3b4ad09e	0.00309471
57	0xbc9c3c54	-0.019071735
58	0x3cd93444	0.02651418
59	0x3c839bd0	0.016065508
60	0xbc95d1f9	-0.0182886
61	0x3ce40fcd	0.027839566
62	0x3ccdca96	0.025121015
63	0x3d10d95b	0.035363536
64	0xbc7ab20f	-0.015301242
65	0x3b248a59	0.0025106876
66	0x3a940de7	0.0011295647
67	0x3c03bc00	0.008040428
68	0xbcb10dfc	-0.021613114
69	0xbccbc369	-0.024873452
70	0x3ca2b9e0	0.019864023
71	0xbc7a1939	-0.015264803
72	0x3c8f81df	0.017517982
73	0xbb0123c2	-0.0019705151
74	0x3c5a5b39	0.013327413
75	0x3c31e3d6	0.010857543
76	0x3c946591	0.018114837
77	0x3cc1eee4	0.023673482
78	0xbcdc9918	-0.02692847
79	0x3cbc4a10	0.022984535
80	0xbca1a4f0	-0.019731969
81	0xbcb574f8	-0.022150502
82	0x3be36007	0.0069389376
83	0xbaace216	-0.0013189937
84	0x3cd2e294	0.025742806
85	0xbc826341	-0.015916469
86	0xbcdd0f2c	-0.026984774
87	0x3cff7b15	0.03118662
88	0xbb256656	-0.0025238
89	0x3ca68c84	0.020330675
90	0x3c26025a	0.010132397
91	0xbcf43344	-0.029809602
92	0x3b83b653	0.0040195375
93	0x3c09d355	0.008412202
94	0xbd0596f7	-0.032614674
95	0xbcd0570a	-0.025432128
96	0xbc65933e	-0.014012156
97	0xbbbea3ef	-0.0058178823
98	0xbcc4cf18	-0.024024531
99	0xbccc71a7	-0.024956537
100	0x3c9be47c	0.019029848
101	0xbd036c5f	-0.032085773
102	0xbc17ef0d	-0.009273303
103	0xbbe71b56	-0.0070528192
104	0xbd6b2791	-0.05741078
105	0xbd043359	-0.03227553
106	0x3d401b76	0.04690119
107	0x3c916506	0.017748367
108	0x3d119656	0.035543762
109	0x3bd980f8	0.0066376887
110	0x3c799cc4	0.01523513
111	0x3d00cb73	0.031444024
112	0x3d1e3c4c	0.038631722
113	0xbc9b1813	-0.018932378
114	0x3c1642fc	0.009171244
115	0x3cfe5a0d	0.031048799
116	0x3cfa0692	0.030520711
117	0x3c9e3ab4	0.019315101
118	0xbcd4e616	-0.02598862
119	0xbcb97c85	-0.022642383
120	0xbce097b1	-0.027416082
121	0x3c01f142	0.0079310555
122	0x3ce352a4	0.027749367
123	0xbd166fbc	-0.036727652
124	0x3cb1835c	0.021669082
125	0x3c01e056	0.007927021
126	0xbc68e6de	-0.014215199
127	0xbc39f540	-0.011349976
128	0x3cafc36c	0.02145549
129	0x3d41db4f	0.04732829
130	0xbd473c8f	-0.048641738
131	0xbd0b45fa	-0.03400228
132	0xbc418ecd	-0.0118138315
133	0xbc21c881	-0.009874464
134	0x3beb7085	0.007185044
135	0x3b7b24d8	0.003832152
136	0xbbf5896e	-0.0074931895
137	0xba5519b4	-0.0008129135
138	0xbcb90879	-0.022587048
139	0xbcc66771	-0.024219247
140	0xbc3e05a2	-0.011598023
141	0x3a1f6f40	0.0006081946
142	0xbc8ca735	-0.017169574
143	0x3c8724eb	0.016497096
144	0x3beaa724	0.007161038
145	0xbcf6bf80	-0.030120611
146	0xbbef1f98	-0.0072974674
147	0xbd0c2b2f	-0.03422087
148	0xbce6ae6f	-0.028159348
149	0xbc30323a	-0.010754162
150	0xbce0b1c0	-0.027428508
151	0x3c69aa7b	0.014261837
152	0x398a9790	0.00026434334
153	0x3d538e94	0.051649645
154	0x3d31b845	0.043388624
155	0xbb419d41	-0.0029543194
156	0xbcb44a50	-0.022008091
157	0x3c40db5f	0.011771052
158	0x3d9b0670	0.07569587
159	0x3cc188b4	0.023624755
160	0xbd3e1f89	-0.046416793
161	0xbca44ecf	-0.02005711
162	0xbcaee150	-0.021347672
163	0xbc2e4119	-0.010635638
164	0xbd37e5fb	-0.04489706
165	0x3b8c1c37	0.0042758244
166	0xbbf98158	-0.007614296
167	0xbb1cc216	-0.0023919395
168	0xbcc21ad0	-0.023694426
169	0xbc3cc42e	-0.011521382
170	0xbbc7d23e	-0.006098061
171	0x3ca3605b	0.019943407
172	0x3be7e6de	0.007077082
173	0xbc7e545d	-0.015523043
174	0xba9a3103	-0.0011763874
175	0xbbf10bee	-0.0073561585
176	0xbced8f75	-0.02899907
177	0xbd7753e6	-0.060382746
178	0xbd93fb47	-0.07225662
179	0xbb2a7ff9	-0.002601622
180	0xbd0131e1	-0.03154171
181	0x3cf20d30	0.029547304
182	0xbc98b2bd	-0.018639917
183	0xbcf02e93	-0.029319083
184	0xbd3ac1f1	-0.045595113
185	0x3c3cc901	0.011522532
186	0xbd9ef40d	-0.07761393
187	0xbd186755	-0.03720792
188	0xbd1256fb	-0.035727482
189	0xbcb4fb03	-0.022092348
190	0x3cac8358	0.021058723
191	0xbd09f6c5	-0.033682603
192	0xbd36f114	-0.044663504
193	0xbc202aed	-0.009775859
194	0x3cd5a34b	0.02607884
195	0xbcab1690	-0.020884782
196	0x3cb071bd	0.02153861
197	0x3cdf80de	0.027283128
198	0x3d250bad	0.040294338
199	0xbcb9a229	-0.022660332
200	0x3c6bbbad	0.014388007
201	0xbd3543ea	-0.04425422
202	0x3b992a79	0.0046742526
203	0xbd4b396e	-0.049615316
204	0xbc9f2a05	-0.019429216
205	0xbd1fa582	-0.0389762
206	0xbd27268c	-0.040808246
207	0xbca01230	-0.019539922
208	0x3ba5b08c	0.0050564464
209	0x3d624ac4	0.055247083
210	0xbc17392a	-0.009229938
211	0xb7797a80	-1.4870078e-05
212	0xbd500ba1	-0.05079234
213	0x3c85bc6b	0.016325196
214	0xbbe7a0c0	-0.0070687234
215	0xbcb2d8ed	-0.021831954
216	0xbcc9bc49	-0.024625914
217	0xbd104d95	-0.035230238
218	0x390c0eba	0.00013356927
219	0x3cfe18e5	0.03101773
220	0xbd1d6620	-0.038427472
221	0x3c86ed4e	0.016470578
222	0xbd041976	-0.032250844
223	0xbcaded39	-0.02123128
224	0x3cc78d36	0.024359327
225	0xbca7fc1b	-0.020505955
226	0xbb5c61e7	-0.003362769
227	0x3cd1a684	0.025592096
228	0x3ce8a386	0.028398287
229	0xba19efd2	-0.0005872223
230	0xbd2273e4	-0.039661303
231	0xbd4fecb8	-0.050762862
232	0xbc655875	-0.013998141
233	0xbd7676e1	-0.060171966
234	0xbd44c3e7	-0.04803839
235	0x3c091860	0.008367628
236	0xba52cce9	-0.0008041398
237	0x3d4a049f	0.049320813
238	0x3ba406e3	0.005005704
239	0xbd4c83d2	-0.0499304
240	0xbcedc11f	-0.029022751
241	0x3d0e8fc6	0.03480508
242	0xbc887386	-0.016656648
243	0xbce19f74	-0.027541853
244	0xbd191952	-0.037377663
245	0xbcf5df65	-0.03001375
246	0xbd802083	-0.06256201
247	0xbd5ff54c	-0.054677293
248	0xbd5225e1	-0.051305655
249	0x3be505dd	0.0069892243
250	0x3cf0ea47	0.029408587
251	0xbc0f23e9	-0.008736589
252	0x3bd097fc	0.006365774
253	0x3ca761b0	0.020432323
254	0x3bd6c50c	0.0065542515
255	0xbc640e26	-0.013919389

fc1.bias f4 [128]
0	0xbd149945	-0.03627898
1	0xbc425b77	-0.011862627
2	0xbca25a36	-0.019818407
3	0xbc5b63fe	-0.013390539
4	0xbcc79f0e	-0.024367835
5	0x3c064481	0.008195044
6	0xbb8bc410	-0.004265316
7	0xbcc6400b	-0.02420046
8	0xbc9333d4	-0.01796905
9	0x3cf6c90c	0.030125163
10	0xbc6f5fa8	-0.014610209
11	0xbcf99327	-0.030465676
12	0x3c00d4bb	0.007863219
13	0xbc0fb4a6	-0.008771097
14	0xbc9e746a	-0.01934262
15	0xbcca247c	-0.0246756
16	0x3c767638	0.015042834
17	0xbd3aaac9	-0.04557303
18	0x3c9ec4dc	0.01938098
19	0xbba82df1	-0.00513243
20	0xbd2231e5	-0.039598364
21	0xbd404ab5	-0.046946246
22	0xbcee605a	-0.029098678
23	0x3ba7c1fa	0.0051195594
24	0x3cc3dfd0	0.023910433
25	0xbd193a01	-0.037408832
26	0xbcf13270	-0.029442996
27	0xbc87526d	-0.016518796
28	0xbd55ee41	-0.05222917
29	0xbcac6853	-0.02104584
30	0x3d579355	0.05263074
31	0xbc67c20f	-0.014145388
32	0xbcaf2df1	-0.021384211
33	0xbc313613	-0.010816115
34	0xbc430472	-0.011902915
35	0xbc25e5e4	-0.010125611
36	0xbd00af75	-0.03141733
37	0xbd3cccea	-0.04609386
38	0xbb816a47	-0.003949437
39	0xbc170e9e	-0.009219794
40	0x3c8760b5	0.016525606
41	0x3c7c667c	0.015405294
42	0xb9db7bb7	-0.0004186311
43	0xbcdde96d	-0.027088845
44	0xbd2f5f9a	-0.042815782
45	0xbc816b61	-0.015798273
46	0xbb1f9983	-0.0024352975
47	0xbc485ce0	-0.012229174
48	0xbb4e7fce	-0.0031509283
49	0xbd1aa0ca	-0.037750997
50	0x3b3f522e	0.002919327
51	0xbb6406d0	-0.00347941
52	0xbd2f29fb	-0.042764645
53	0x3bb361d0	0.0054743066
54	0xbd12288f	-0.03568321
55	0xbcb4c2d6	-0.022065561
56	0x3c2658d5	0.010153015
57	0xbcf0221b	-0.029313138
58	0xbda09764	-0.078413755
59	0xb9d880b7	-0.0004129463
60	0x3b929e1e	0.0044744154
61	0xbd26b8b4	-0.04070349
62	0x3cab770c	0.02093079
63	0xbd69670f	-0.05698305
64	0xbd053264	-0.03251876
65	0x3bb4bf2d	0.005515954
66	0xbd46e5a2	-0.04855884
67	0xbd0de13c	-0.03463863
68	0x3ce4ae3d	0.027915115
69	0xbc814951	-0.01578203
70	0xbd6f399b	-0.058404546
71	0xbd42ef4c	-0.047591493
72	0xbd12aa46	-0.035806917
73	0xbc8b226d	-0.016984189
74	0x3b39eeae	0.0028371024
75	0x3b94ac4b	0.0045371405
76	0xbac1f967	-0.0014799059
77	0xbd35c2ab	-0.044375103
78	0xbc817a93	-0.015805518
79	0xbc9bf80d	-0.019039178
80	0x3d2a166b	0.041525286
81	0xbd46ff75	-0.048583467
82	0xbd1adcfe	-0.03780841
83	0xbc2482e0	-0.010040969
84	0xbd4e49d4	-0.050363377
85	0xbb31e188	-0.0027142484
86	0xbd0e3972	-0.034722753
87	0xbb1aa7c8	-0.002359854
88	0xbc997de4	-0.018736787
89	0xbca00a8b	-0.019536277
90	0xbd567640	-0.052358866
91	0xbcdd6bdb	-0.027028969
92	0x3b9e71db	0.00483535
93	0xbd104e52	-0.035230942
94	0xbd359d0d	-0.04433923
95	0x3b26c359	0.0025446026
96	0xbbce9c4e	-0.006305254
97	0x3b2e660e	0.0026611122
98	0xbc635641	-0.013875545
99	0xbc82d373	-0.015969967
100	0x3c96a943	0.018391257
101	0xbcf6f389	-0.030145423
102	0xbd0fb6c4	-0.03508641
103	0xbc8ebaf2	-0.017423127
104	0xbc30a208	-0.010780819
105	0x3c191567	0.009343482
106	0xbbf36a45	-0.00742844
107	0xbd6e3799	-0.05815849
108	0xbcfcb661	-0.030848684
109	0xbcc92e09	-0.024558084
110	0xbd0b84e6	-0.03406229
111	0xbcd28aa6	-0.025700878
112	0xbc0d195d	-0.008612004
113	0xbd3e6b68	-0.04648915
114	0xbd079b76	-0.033107243
115	0x3b8c2506	0.0042768745
116	0xbd386950	-0.04502231
117	0xbbf4dc1e	-0.007472529
118	0x3aa93c38	0.0012911623
119	0xbc0758e3	-0.008260938
120	0xbcd8d66d	-0.026469434
121	0x3c425246	0.011860436
122	0x3c69b260	0.014263719
123	0xbc5e01f5	-0.013550271
124	0xbbfb05ab	-0.007660588
125	0xbd326dab	-0.04356162
126	0xbcc8d790	-0.02451685
127	0xbca82528	-0.02052553

fc2.weight f4 [64, 128]
0	0x3d39f46b	0.04539911
1	0x3da103cb	0.078620516
2	0xbda9a818	-0.082840145
3	0xbd693d8c	-0.05694346
4	0xbde455ca	-0.111491755
5	0xba9debc9	-0.0012048419
6	0xbd9ad816	-0.07560746
7	0xbc8248c2	-0.015903834
8	0xbde15990	-0.11003411
9	0xba64c05b	-0.0008726173
10	0x3e4a7b62	0.1977363
11	0xbb1b251d	-0.0023673244
12	0xbe16fbd9	-0.1474451
13	0x3d190e56	0.037367187
14	0xbd896e5a	-0.06710501
15	0x3c8cf394	0.01720599
16	0x3dd211c3	0.10257294
17	0xbdfe4782	-0.12415983
18	0xbc753bb2	-0.014967846
19	0x3dd430b7	0.10360854
20	0x3d964143	0.073366664
21	0xbde752a3	-0.112950586
22	0xbd644202	-0.055727012
23	0x3e280d89	0.16411413
24	0xbd9f4962	-0.077776685
25	0x3d677f8b	0.05651812
26	0xbcae4126	-0.0212713
27	0x3dd8aa5a	0.10579367
28	0xbd1f2194	-0.038850382
29	0xbe250d3a	-0.16118327
30	0x3e49295b	0.19644682
31	0x3d940889	0.072281905
32	0xbcb2ec99	-0.021841334
33	0x3d7c2bf9	0.061565373
34	0xbdbcf540	-0.09226465
35	0x3d38c825	0.045112748
36	0x3dbc3b28	0.09190971
37	0xbdcc1f74	-0.09966937
38	0x3da4ce1a	0.08047123
39	0x3df095f8	0.11747354
40	0xbdd647a8	-0.10462886
41	0xbce4cfc9	-0.027931111
42	0xbc8d6d5b	-0.017264059
43	0xbc94209c	-0.018081956
44	0x3d6fa54e	0.058507256
45	0xbd6929b3	-0.056924533
46	0x3cfef40f	0.031122236
47	0x3dbb0014	0.09130874
48	0xbd4a3334	-0.049365237
49	0xbd98125b	-0.07425376
50	0xbda7da8a	-0.0819598
51	0xbcd544c2	-0.026033763
52	0xbe214be4	-0.15751606
53	0xbe57c7e6	-0.21072349
54	0xbae0a8ee	-0.0017140189
55	0x3c863c5a	0.0163862
56	0x3bd306f8	0.0064400397
57	0xbdef5996	-0.11687009
58	0x3cae79c3	0.021298295
59	0xbe0aee3b	-0.1356744
60	0x3dbf896c	0.09352383
61	0x3dbff508	0.09372908
62	0xbdafcb3f	-0.08583688
63	0x3e2a838b	0.16651742
64	0xbd504164	-0.05084361
65	0x3d4d644d	0.050144482
66	0xbb6e751f	-0.0036385728
67	0x3cdbfc9b	0.02685385
68	0x3cbcc9e8	0.023045495
69	0x3e0a6ba0	0.13517618
70	0x3d92b23f	0.07162904
71	0xbd223ee1	-0.039610747
72	0x3d3ab278	0.045580357
73	0xbe2f11da	-0.17096654
74	0xbe01fae4	-0.12693363
75	0xbc0fc34e	-0.008774592
76	0xbda3e61c	-0.08002874
77	0x3d755527	0.05989566
78	0x3da8af2a	0.08236535
79	0xbc9e5903	-0.019329553
80	0x3da47230	0.08029592
81	0x3ddd5518	0.10807246
82	0xbd47c7e8	-0.04877463
83	0x3d74d031	0.05976886
84	0x3c90ab09	0.01765968
85	0x3d0f2afa	0.034953095
86	0xbc08702c	-0.008327525
87	0xbcd8633f	-0.026414512
88	0x3be976be	0.007124751
89	0x3dc35605	0.09537891
90	0x3cda311f	0.02663475
91	0x3e21bdc6	0.15795049
92	0xbda96e7a	-0.08273025
93	0xbe2d07be	-0.16897485
94	0x3e6aab8a	0.22917
95	0xbd93fbec	-0.07225785
96	0xbc16b180	-0.009197593
97	0x3da38e34	0.079861075
98	0x3dda8896	0.10670583
99	0x3e17f7ec	0.14840668
100	0x3d33e7cf	0.04392224
101	0xbd370d9e	-0.04469072
102	0xbe08db5b	-0.13364927
103	0x3cfb6b20	0.03069073
104	0xbd979fa2	-0.074034944
105	0x3ddcc667	0.1078003
106	0x3e2c628b	0.16834466
107	0xbd44f0a3	-0.04808105
108	0xbe03d7b2	-0.1287525
109	0x3e4fa5ab	0.20278041
110	0xbd3904e0	-0.045170665
111	0x3d27d8ac	0.04097812
112	0xbd2d859d	-0.04236375
113	0xbe130456	-0.14357123
114	0xbabe8724	-0.0014536125
115	0x3ded4065	0.11584548
116	0x3cfba94e	0.03072038
117	0x3c9be746	0.019031178
118	0xbd11975f	-0.03554475
119	0xbd84f69c	-0.064923495
120	0x3d517e67	0.051145937
121	0x3e3153e1	0.17317154
122	0xbdefff26	-0.117185876
123	0x3e0290d2	0.12750557
124	0x3dd66439	0.10468335
125	0x3dd093f6	0.10184471
126	0x3e853ad6	0.2602145
127	0xbe0f9515	-0.14021714
128	0x3e2b2e1d	0.1671681
129	0xbddb5260	-0.10709071
130	0xbd2755c3	-0.040853273
131	0xbd9fc2a8	-0.078007996
132	0xbdfd7f80	-0.12377834
133	0xbdf667f5	-0.12031547
134	0x3daf338a	0.08554752
135	0xbd2dd318	-0.042437643
136	0xbb9a641d	-0.0047116415
137	0x3d62545a	0.055256225
138	0x3bc13411	0.0058960994
139	0x3db9b21b	0.09067174
140	0x3c0d2c57	0.0086165285
141	0x3dac11a6	0.08401804
142	0x3dc17788	0.09446627
143	0x3cd70fdf	0.026252685
144	0xbe8833e7	-0.26602098
145	0xbe1f7d16	-0.1557506
146	0xbe909ebb	-0.28246102
147	0xbda02f13	-0.07821479
148	0x3d4e80f7	0.05041596
149	0xbe334c57	-0.1750959
150	0x3cafe1ea	0.021470029
151	0xbd64c681	-0.05585337
152	0xbe795ae0	-0.24351072
153	0xbccc1188	-0.024910703
154	0x3c69f131	0.014278696
155	0xbe034340	-0.12818623
156	0xbdff02aa	-0.1245168
157	0xbba6a181	-0.0050851707
158	0xbe34ecd4	-0.17668468
159	0x3e3402f7	0.17579256
160	0xbdf9cc90	-0.1219722
161	0xbe0fb5bc	-0.1403417
162	0x3d4258b3	0.04744787
163	0xbd995f9a	-0.07488938
164	0xbc8bad34	-0.017050363
165	0x3d17830e	0.036990218
166	0xbd3d4243	-0.04620577
167	0x3c66fee1	0.014098854
168	0x3e5898e1	0.21152069
169	0xbcb04f45	-0.021522174
170	0xbdad05a1	-0.08448339
171	0xbde3c87f	-0.11122226
172	0xbdd09ca4	-0.10186127
173	0x3db563f0	0.08856952
174	0x3df63cd5	0.120233215
175	0xbd91eaff	-0.071249
176	0x3dd32f93	0.103118084
177	0xbe4b04d5	-0.19826062
178	0xbe5db51e	-0.21651122
179	0x3ddc400b	0.10754403
180	0x3ca44bcc	0.020055674
181	0x3d10b89e	0.035332315
182	0x3d073823	0.03301252
183	0x3dea4092	0.11438097
184	0x3d3fde8a	0.04684309
185	0x3de71bc2	0.11284591
186	0x3dd4a4e7	0.10383015
187	0xbb8bef72	-0.0042704875
188	0xbd6dc21b	-0.05804644
189	0xbe0e529c	-0.138987
190	0xbc73f545	-0.01489002
191	0x3acebcf0	0.001577286
192	0xbd9a76b5	-0.07542173
193	0xbdbfae83	-0.09359457
194	0x3d6b410a	0.057435073
195	0xbe636483	-0.22206311
196	0xbdf66ff2	-0.120330706
197	0x3cd04c28	0.02542694
198	0x3e3da266	0.18518981
199	0xbd10debc	-0.035368666
200	0x3d0324f8	0.032017678
201	0x3cc84f57	0.024451895
202	0xbe055c8a	-0.13023582
203	0x3d26826e	0.04065173
204	0x3d590da5	0.052991528
205	0xbca327ca	-0.019916434
206	0xbdb5e1ce	-0.088809595
207	0x3c091c27	0.008368528
208	0x3d0012c8	0.03126791
209	0xbdb5bc9c	-0.08873865
210	0x3d7683a2	0.06018413
211	0xbe5603f0	-0.2089994
212	0x3d6dc2cc	0.0580471
213	0xbd666e7b	-0.056257706
214	0xbe253c80	-0.1613636
215	0xbe1c2448	-0.15248215
216	0x3d58d8b7	0.05294105
217	0xbd98b318	-0.074560344
218	0x3d5d5381	0.054034714
219	0xbdf004af	-0.11719643
220	0xbbe5015b	-0.006988687
221	0x3d3561bc	0.04428266
222	0xbd719d20	-0.058987737
223	0x3cd887b8	0.026431903
224	0x3ccb3519	0.024805592
225	0x3ded8558	0.11597699
226	0x3c99d24c	0.018777035
227	0xbce8bc91	-0.028410228
228	0x3d1155d8	0.035482258
229	0xbc7861f2	-0.015160071
230	0x3cc0142f	0.023447124
231	0xbd428bf0	-0.047496736
232	0x3d222a48	0.039591104
233	0x3ba7a6aa	0.0051163035
234	0x3d591c76	0.053005658
235	0xbc9ed3de	-0.019388136
236	0xbea97391	-0.33095983
237	0xbd98b29e	-0.074559435
238	0x3d340626	0.043951176
239	0xbded0815	-0.11573807
240	0xbcafe78d	-0.021472717
241	0x3d52aa24	0.05143179
242	0xbd0c9dc0	-0.03433013
243	0xbe0086ca	-0.12551418
244	0xbe26ba6e	-0.16282055
245	0x3df748a8	0.12074405
246	0x3cd57172	0.026055072
247	0x3d317a5a	0.043329574
248	0x3aa792ad	0.0012784802
249	0xbe501f51	-0.20324446
250	0xbcdfb0ca	-0.02730598
251	0x3b3cf850	0.002883453
252	0xbdaf91c3	-0.08572724
253	0x3be28e57	0.006913941
254	0xbcb2597f	-0.02177119
255	0x3cd2d5a8	0.025736645

fc2.bias f4 [64]
0	0xbdd81e31	-0.105526336
1	0x3e5819f5	0.21103652
2	0x3e460628	0.19338286
3	0x3df02cd8	0.11727303
4	0xbd4e989e	-0.050438516
5	0xbd08893d	-0.033334006
6	0x3e051eb1	0.12999989
7	0x3d07bedb	0.033141
8	0xbdda4d22	-0.10659243
9	0x3cbb86bd	0.022891397
10	0x3ca5b31c	0.020227008
11	0x3d9d9206	0.076938674
12	0xbda7d3c3	-0.08194687
13	0xbe011fb2	-0.12609747
14	0xbc5aebf5	-0.013361921
15	0x3dbd6afd	0.09248922
16	0x3c92ad73	0.017904973
17	0xbe19c150	-0.15015149
18	0x3e831df4	0.2560879
19	0x3e1811cc	0.14850539
20	0xbe298273	-0.16553669
21	0xbdc59501	-0.09647561
22	0x3e443187	0.19159518
23	0xbc9e1862	-0.019298736
24	0xbdbcfed9	-0.09228296
25	0x3e1b805d	0.15185685
26	0x3de58355	0.1120669
27	0xbd185723	-0.037192475
28	0xbd875699	-0.06608314
29	0x3e40c471	0.18824936
30	0x3d9f8e28	0.07790786
31	0x3de16f7d	0.11007593
32	0x3e41e5c8	0.18935311
33	0x3d4b7858	0.049675316
34	0x3d8322e3	0.064031385
35	0xbd1062fd	-0.035250653
36	0x3e4977a8	0.19674551
37	0x3d098ec7	0.03358343
38	0x3e0cce13	0.13750486
39	0x3dcee1e3	0.10101678
40	0xbdd15196	-0.102206394
41	0x3df813ee	0.12113176
42	0xbd91d01c	-0.07119772
43	0x3d407426	0.046985768
44	0x3c11055f	0.008851378
45	0x3d943c7a	0.072380975
46	0x3db942dc	0.090459555
47	0xbc24e7ec	-0.01006506
48	0xbd849715	-0.06474129
49	0x3e002466	0.12513885
50	0x3d903a0f	0.07042324
51	0x3d92fcb6	0.07177107
52	0xbdb57f5f	-0.08862185
53	0x3d4068c3	0.04697491
54	0xbd3bdfb2	-0.04586763
55	0x3d9ce2f2	0.07660474
56	0x3da7d309	0.08194549
57	0xbe07b5bc	-0.1325292
58	0x3e86c24a	0.26320106
59	0xbcde5f8e	-0.027145173
60	0x3cb4dcd5	0.022077957
61	0x3d814e3a	0.06313749
62	0xbcfa0ff4	-0.030525185
63	0xbe1dfe24	-0.15428978

fc3.weight f4 [10, 64]
0	0x3e5deb1c	0.21671718
1	0x3ea54199	0.3227661
2	0xbe8a53d5	-0.27017084
3	0x3d4f7973	0.050652932
4	0x3dcfce38	0.10146755
5	0xbd0328b5	-0.032021243
6	0x3eb14e9b	0.34630284
7	0xbe1cfccc	-0.1533081
8	0x3ea3ac7d	0.31967536
9	0xbe3571e5	-0.17719229
10	0xbd9c6d7f	-0.07638072
11	0x3e4f1003	0.20220952
12	0x3da1b165	0.078951634
13	0xbebf81b3	-0.3740364
14	0x3edb7d78	0.42869163
15	0xbe4dc4e0	-0.20094633
16	0x3e86d988	0.26337838
17	0xbebb3fee	-0.36572212
18	0xbe05d633	-0.13069992
19	0xbed5bed0	-0.4174714
20	0xbe88b82c	-0.26703012
21	0xbd4fbfde	-0.05072009
22	0x3d5dd1b7	0.054155078
23	0xbe9ccdcf	-0.3062577
24	0xbe41deef	-0.18932699
25	0xbee306cf	-0.44341132
26	0xbe2e90e7	-0.17047463
27	0x3e616835	0.22012408
28	0xbe81f911	-0.25385335
29	0x3df9a97a	0.12190528
30	0x3e8e1e06	0.2775728
31	0xbf0abbd4	-0.5419285
32	0xbe110b59	-0.14164485
33	0xbd9e7132	-0.07736434
34	0xbdb605b5	-0.08887807
35	0xbcdebebe	-0.027190562
36	0xbd500eee	-0.050795488
37	0x3ed8dae0	0.42354488
38	0xbe189b47	-0.14902984
39	0x3d7d8fb2	0.061904617
40	0x3cb86bdd	0.02251237
41	0x3e6d5fb5	0.2318104
42	0xbd68fe6a	-0.056883253
43	0xbe3cb94b	-0.18430059
44	0x3e61d3a1	0.22053386
45	0xbd9b72f8	-0.07590288
46	0x3e9dd5cd	0.3082718
47	0xbe534a88	-0.206339
48	0xbd91c495	-0.07117573
49	0xbd87cfd3	-0.06631436
50	0xbe7e05c3	-0.24806885
51	0xbe2f605d	-0.17126603
52	0x3c84961d	0.01618486
53	0x3e9050a3	0.2818652
54	0x3e20ea47	0.1571437
55	0x3d81b92e	0.06334148
56	0x3d3dd2f4	0.04634376
57	0x3eba77e0	0.36419582
58	0xbe6aef36	-0.22942814
59	0x3ea6468c	0.32475698
60	0xbc06aac2	-0.008219423
61	0x3ee6bef6	0.45067567
62	0xbe8f380e	-0.27972454
63	0xbeb773dc	-0.3583058
64	0x3e55e204	0.20887
65	0xbe33ef42	-0.17571738
66	0xbed78ca0	-0.42099476
67	0xbe89766a	-0.26848155
68	0x3e204979	0.15653028
69	0xbe514c59	-0.2043928
70	0xbe37be32	-0.17943648
71	0x3e8e1c9b	0.277562
72	0xbdb6c062	-0.08923413
73	0xbe47beb2	-0.19506338
74	0x3dfb5daf	0.12273728
75	0xbea9a98e	-0.33137172
76	0x3e33ffdc	0.17578071
77	0xbe658105	-0.22412498
78	0xbd4f260d	-0.050573397
79	0x3eb7d62c	0.35905588
80	0xbe9ab5d3	-0.30216846
81	0x3e46eabb	0.1942548
82	0x3d98a8a1	0.074540384
83	0x3e188335	0.14893802
84	0x3e7536a0	0.23946619
85	0x3ea53968	0.3227036
86	0x3e6fb484	0.23408705
87	0x3e69ed19	0.22844352
88	0x3ec50364	0.3847915
89	0x3e32c42c	0.17457646
90	0xbc336e3d	-0.010951576
91	0xbe097057	-0.1342176
92	0xbc9d5d58	-0.019209549
93	0xbea098a3	-0.31366453
94	0xbe96c45c	-0.29446685
95	0x3d8af884	0.06785682
96	0xbed1c4ce	-0.40970463
97	0xbe134567	-0.14381944
98	0xbedf2f35	-0.43590704
99	0xbe9d6272	-0.3073917
100	0x3df0670f	0.11738407
101	0x3d979e5e	0.07403253
102	0xbe16d94c	-0.1473133
103	0x3cf1b2a3	0.029504126
104	0x3eb53be5	0.35397258
105	0xbde34d67	-0.11098748
106	0xbcc941cf	-0.024567513
107	0x3e64ee2e	0.22356483
108	0xbe75f9d1	-0.24021079
109	0xbc257221	-0.010098011
110	0xbe1ee582	-0.15517238
111	0x3ddca7c7	0.107741885
112	0x3e6d38e7	0.23166238
113	0x3c0fd19d	0.008778003
114	0xbe9791e4	-0.29603493
115	0x3ec1a7b5	0.37823263
116	0x3eeb1d79	0.45920923
117	0xbdcc0161	-0.099612005
118	0x3ea44513	0.3208395
119	0x3eb6b3b0	0.35683966
120	0xbe5ad644	-0.21370798
121	0xbe367819	-0.17819251
122	0x3eab23a4	0.3342563
123	0x3e8833ea	0.26602107
124	0x3d6575bf	0.056020495
125	0xbdf2f63b	-0.11863371
126	0x3ed4a1a9	0.41529587
127	0x3eaba685	0.33525482
128	0xbdcb641b	-0.09931203
129	0xbe773805	-0.24142464
130	0xbe81fe7f	-0.25389478
131	0x3e34bab9	0.17649354
132	0xbdb66682	-0.089062706
133	0xbdd9a5b8	-0.106273115
134	0x3e80c944	0.25153553
135	0x3e885df0	0.2663417
136	0x3e958d73	0.2920948
137	0x3ec06225	0.37574878
138	0xbdfb63fe	-0.12274931
139	0x3deb4802	0.11488344
140	0xbbc3b8cd	-0.0059729577
141	0xbd87657f	-0.06611156
142	0xbe2ee83d	-0.1708078
143	0xbeacd392	-0.33755165
144	0x3e1afa24	0.15134484
145	0xbe38e0e3	-0.18054537
146	0xbe81f429	-0.25381592
147	0xbe2b7bc8	-0.16746438
148	0x3e8421f1	0.25807145
149	0xbe0c9843	-0.13729958
150	0x3df115e2	0.11771752
151	0x3e859ebb	0.26097664
152	0x3ea7c4eb	0.32767424
153	0x3e970bdd	0.29501238
154	0x3e35b794	0.17745811
155	0x3e2dfb45	0.16990383
156	0x3e884cb5	0.26621023
157	0xbdda88ad	-0.106706
158	0x3e7be7d0	0.24600148
159	0xbeb07ced	-0.3447031
160	0xbea816c5	-0.32829872
161	0x3e8b7819	0.27240065
162	0xbea73e5e	-0.3266477
163	0x3ed1cc89	0.4097636
164	0xbe80f883	-0.251896
165	0xbd1cdca5	-0.03829636
166	0x3ea2efe0	0.31823635
167	0xbe93437d	-0.28762427
168	0x3e77a433	0.24183731
169	0xbe96000d	-0.29296914
170	0x3e1d226f	0.15345167
171	0x3e881001	0.2657471
172	0x3e3f019b	0.18652956
173	0x3d00d28d	0.031450797
174	0xbea25ced	-0.31711522
175	0xbe4a0246	-0.1972743
176	0xbe0c37d9	-0.13693179
177	0x3e891b33	0.26778564
178	0x3c260c4a	0.010134766
179	0xbe1bfd11	-0.15233256
180	0xbd9c7fe8	-0.07641584
181	0x3e4c5aee	0.19956562
182	0xbe082353	-0.13294725
183	0xbe3e7c9a	-0.18602219
184	0x3e9295f0	0.28630018
185	0xbea22607	-0.31669638
186	0xbe9ba16d	-0.30396596
187	0x3e5da2e9	0.21644177
188	0xbd6af0d6	-0.057358585
189	0x3e310012	0.17285183
190	0xbe9d48ac	-0.30719507
191	0x3e958370	0.2920184
192	0x3e5f90bb	0.21832554
193	0xbe93394e	-0.28754658
194	0xbe050c4a	-0.12992969
195	0xbec22bf5	-0.37924162
196	0x3e8b32e3	0.2718726
197	0x3eaaa900	0.33332062
198	0x3da33eff	0.07971
199	0xbe668998	-0.22513425
200	0xbe907b12	-0.28218895
201	0xbd841493	-0.06449237
202	0x3ebde65f	0.37089822
203	0xbe1830b4	-0.14862329
204	0x3e25d8ab	0.16195934
205	0x3e9e7323	0.30947217
206	0xbe65d0d7	-0.22442947
207	0xbe2ff296	-0.17182383
208	0xbe95c459	-0.29251364
209	0xbe857e76	-0.26073045
210	0xbe25b20e	-0.16181204
211	0x3e477c2f	0.19480966
212	0x3e48060c	0.19533557
213	0x3ec73e34	0.38914645
214	0x3d9742e2	0.07385804
215	0x3e5b4b39	0.21415414
216	0xbe41f19f	-0.18939827
217	0x3e50a24f	0.20374416
218	0xbe5d4e59	-0.21611919
219	0x3e6483f4	0.22315961
220	0x3e8a5df8	0.27024817
221	0x3e736d42	0.23772147
222	0x3e68362c	0.22676915
223	0x3e90b3ad	0.28262082
224	0x3e97c3e8	0.29641652
225	0x3ebcfd9e	0.36912245
226	0xbea07ceb	-0.31345305
227	0xbe222f2c	-0.15838307
228	0xbb6c8c6f	-0.0036094447
229	0xbc84d287	-0.016213669
230	0x3eaa95b3	0.33317336
231	0xbdb9c1dd	-0.090701796
232	0xbe90294a	-0.281565
233	0x3e307ef2	0.17235926
234	0x3e01c091	0.12671115
235	0x3e862e39	0.2620714
236	0x3e5711d2	0.21002892
237	0xbdec9290	-0.11551392
238	0xbd06c1fb	-0.032899838
239	0xbeb7e6ba	-0.35918218
240	0x3c342593	0.0109952865
241	0x3e6659b6	0.2249516
242	0x3e95c304	0.29250348
243	0xbeb437db	-0.35198864
244	0x3eb5a367	0.3547623
245	0xbe3bb4b3	-0.1833065
246	0xbe32377e	-0.17403981
247	0xbe88c1f9	-0.2671049
248	0xbe906fe1	-0.28210357
249	0xbe6fcd0a	-0.2341806
250	0xbec3b699	-0.38225248
251	0xbeadd1d5	-0.33949152
252	0xbe25bb7d	-0.16184802
253	0xbda38c52	-0.07985748
254	0xbeaf9e2e	-0.3430037
255	0x3b190583	0.0023349233

fc3.bias f4 [10]
0	0x3dd9096d	0.10597501
1	0x3c357a9e	0.0110765975
2	0xbe64b3f1	-0.22334267
3	0xbd762c5e	-0.060100906
4	0xbd7cee14	-0.061750486
5	0xbe08e937	-0.13370214
6	0xbd9ebb21	-0.07750536
7	0xbec0302b	-0.3753675
8	0x3ee3da14	0.44502318
9	0x3dc0f4ec	0.09421715
